…
et2_CE_SR2/backup-code')
Config: {'optimizer': {'type': 'adam', 'skip_wd': [], 'weight_decay': 0.0001, 'kwargs': {'lr': 0.001}}, 'scheduler': {'type': 'CosLR', 'kwargs': {'t_initial': 250, 'cycle_limit': 1, 'lr_min': 1e-05}}, 'model': {'ENCO_NAME': 'pn2-msg', 'dropout': 0.5, 'cla_input_dim': 1024, 'act': 'relu'}}
World size: 1

SR2 train synset: {'bed': 0, 'toilet': 1, 'desk': 2, 'monitor': 3, 'table': 2}
Source: SR2
Num training classes: 4
Model: 
Classifier(
  (enco): Pointnet2_MSG_Y(
    (sa1): PointNetSetAbstractionMsg(
      (conv_blocks): ModuleList(
        (0): ModuleList(
          (0): Conv2d(3, 32, kernel_size=(1, 1), stride=(1, 1))
          (1): Conv2d(32, 32, kernel_size=(1, 1), stride=(1, 1))
          (2): Conv2d(32, 64, kernel_size=(1, 1), stride=(1, 1))
        )
        (1): ModuleList(
          (0): Conv2d(3, 64, kernel_size=(1, 1), stride=(1, 1))
          (1): Conv2d(64, 64, kernel_size=(1, 1), stride=(1, 1))
          (2): Conv2d(64, 128, kernel_size=(1, 1), stride=(1, 1))
        )
        (2): ModuleList(
          (0): Conv2d(3, 64, kernel_size=(1, 1), stride=(1, 1))
          (1): Conv2d(64, 96, kernel_size=(1, 1), stride=(1, 1))
          (2): Conv2d(96, 128, kernel_size=(1, 1), stride=(1, 1))
        )
      )
      (bn_blocks): ModuleList(
        (0): ModuleList(
          (0-1): 2 x BatchNorm2d(32, eps=1e-05, momentum=0.1, affine=True, track_running_stats=True)
          (2): BatchNorm2d(64, eps=1e-05, momentum=0.1, affine=True, track_running_stats=True)
        )
        (1): ModuleList(
          (0-1): 2 x BatchNorm2d(64, eps=1e-05, momentum=0.1, affine=True, track_running_stats=True)
          (2): BatchNorm2d(128, eps=1e-05, momentum=0.1, affine=True, track_running_stats=True)
        )
        (2): ModuleList(
          (0): BatchNorm2d(64, eps=1e-05, momentum=0.1, affine=True, track_running_stats=True)
          (1): BatchNorm2d(96, eps=1e-05, momentum=0.1, affine=True, track_running_stats=True)
          (2): BatchNorm2d(128, eps=1e-05, momentum=0.1, affine=True, track_running_stats=True)
        )
      )
    )
    (sa2): PointNetSetAbstractionMsg(
      (conv_blocks): ModuleList(
        (0): ModuleList(
          (0): Conv2d(323, 64, kernel_size=(1, 1), stride=(1, 1))
          (1): Conv2d(64, 64, kernel_size=(1, 1), stride=(1, 1))
          (2): Conv2d(64, 128, kernel_size=(1, 1), stride=(1, 1))
        )
        (1-2): 2 x ModuleList(
          (0): Conv2d(323, 128, kernel_size=(1, 1), stride=(1, 1))
          (1): Conv2d(128, 128, kernel_size=(1, 1), stride=(1, 1))
          (2): Conv2d(128, 256, kernel_size=(1, 1), stride=(1, 1))
        )
      )
      (bn_blocks): ModuleList(
        (0): ModuleList(
          (0-1): 2 x BatchNorm2d(64, eps=1e-05, momentum=0.1, affine=True, track_running_stats=True)
          (2): BatchNorm2d(128, eps=1e-05, momentum=0.1, affine=True, track_running_stats=True)
        )
        (1-2): 2 x ModuleList(
          (0-1): 2 x BatchNorm2d(128, eps=1e-05, momentum=0.1, affine=True, track_running_stats=True)
          (2): BatchNorm2d(256, eps=1e-05, momentum=0.1, affine=True, track_running_stats=True)
        )
      )
    )
    (sa3): PointNetSetAbstraction(
      (mlp_convs): ModuleList(
        (0): Conv2d(643, 256, kernel_size=(1, 1), stride=(1, 1))
        (1): Conv2d(256, 512, kernel_size=(1, 1), stride=(1, 1))
        (2): Conv2d(512, 1024, kernel_size=(1, 1), stride=(1, 1))
      )
      (mlp_bns): ModuleList(
        (0): BatchNorm2d(256, eps=1e-05, momentum=0.1, affine=True, track_running_stats=True)
        (1): BatchNorm2d(512, eps=1e-05, momentum=0.1, affine=True, track_running_stats=True)
        (2): BatchNorm2d(1024, eps=1e-05, momentum=0.1, affine=True, track_running_stats=True)
      )
    )
  )
  (penultimate): Sequential(
    (0): Linear(in_features=1024, out_features=512, bias=False)
    (1): BatchNorm1d(512, eps=1e-05, momentum=0.1, affine=True, track_running_stats=True)
    (2): ReLU()
    (3): Dropout(p=0.5, inplace=False)
    (4): Linear(in_features=512, out_features=256, bias=False)
  )
  (head): Sequential(
    (0): BatchNorm1d(256, eps=1e-05, momentum=0.1, affine=True, track_running_stats=True)
    (1): ReLU()
    (2): Dropout(p=0.5, inplace=False)
    (3): Linear(in_features=256, out_features=4, bias=True)
  )
)

param count: 
1.7373 M
Loss: CE_ls

it: [10/119-1/250], rank: [1/1], Loss: 0.9297, Loss avg: 1.2196, lr: 0.001000, BT: 0.61, DT: 0.00
it: [20/119-1/250], rank: [1/1], Loss: 1.2362, Loss avg: 1.1201, lr: 0.001000, BT: 0.71, DT: 0.01
it: [30/119-1/250], rank: [1/1], Loss: 1.0823, Loss avg: 1.0801, lr: 0.001000, BT: 0.61, DT: 0.00
it: [40/119-1/250], rank: [1/1], Loss: 0.9163, Loss avg: 1.0473, lr: 0.001000, BT: 0.70, DT: 0.00
…
