…
_SR1/models', backup_dir='outputs/DGCNN_CE-ls_SR1/backup-code')
Config: {'optimizer': {'type': 'sgd', 'skip_wd': [], 'weight_decay': 0.0001, 'kwargs': {'lr': 0.1, 'momentum': 0.9}}, 'scheduler': {'type': 'CosLR', 'kwargs': {'t_initial': 250, 'cycle_limit': 1, 'lr_min': 0.0001}}, 'model': {'ENCO_NAME': 'DGCNN', 'k': 20, 'emb_dims': 1024, 'dropout': 0.5, 'cla_input_dim': 2048, 'act': 'leakyrelu'}}
World size: 1

SR1 train synset: {'chair': 0, 'bookshelf': 1, 'door': 2, 'sink': 3, 'sofa': 4}
Source: SR1
Num training classes: 5
Model: 
Classifier(
  (enco): DGCNN(
    (conv1): Sequential(
      (0): Conv2d(6, 64, kernel_size=(1, 1), stride=(1, 1), bias=False)
      (1): BatchNorm2d(64, eps=1e-05, momentum=0.1, affine=True, track_running_stats=True)
      (2): LeakyReLU(negative_slope=0.2)
    )
    (conv2): Sequential(
      (0): Conv2d(128, 64, kernel_size=(1, 1), stride=(1, 1), bias=False)
      (1): BatchNorm2d(64, eps=1e-05, momentum=0.1, affine=True, track_running_stats=True)
      (2): LeakyReLU(negative_slope=0.2)
    )
    (conv3): Sequential(
      (0): Conv2d(128, 128, kernel_size=(1, 1), stride=(1, 1), bias=False)
      (1): BatchNorm2d(128, eps=1e-05, momentum=0.1, affine=True, track_running_stats=True)
      (2): LeakyReLU(negative_slope=0.2)
    )
    (conv4): Sequential(
      (0): Conv2d(256, 256, kernel_size=(1, 1), stride=(1, 1), bias=False)
      (1): BatchNorm2d(256, eps=1e-05, momentum=0.1, affine=True, track_running_stats=True)
      (2): LeakyReLU(negative_slope=0.2)
    )
    (conv5): Sequential(
      (0): Conv1d(512, 1024, kernel_size=(1,), stride=(1,), bias=False)
      (1): BatchNorm1d(1024, eps=1e-05, momentum=0.1, affine=True, track_running_stats=True)
      (2): LeakyReLU(negative_slope=0.2)
    )
  )
  (penultimate): Sequential(
    (0): Linear(in_features=2048, out_features=512, bias=False)
    (1): BatchNorm1d(512, eps=1e-05, momentum=0.1, affine=True, track_running_stats=True)
    (2): LeakyReLU(negative_slope=0.2)
    (3): Dropout(p=0.5, inplace=False)
    (4): Linear(in_features=512, out_features=256, bias=False)
  )
  (head): Sequential(
    (0): BatchNorm1d(256, eps=1e-05, momentum=0.1, affine=True, track_running_stats=True)
    (1): LeakyReLU(negative_slope=0.2)
    (2): Dropout(p=0.5, inplace=False)
    (3): Linear(in_features=256, out_features=5, bias=True)
  )
)

param count: 
1.8003 M
Loss: CE_ls

it: [10/37-1/250], rank: [1/1], Loss: 1.4007, Loss avg: 1.4279, lr: 0.100000, BT: 0.80, DT: 0.00
it: [20/37-1/250], rank: [1/1], Loss: 1.4256, Loss avg: 1.3941, lr: 0.100000, BT: 0.81, DT: 0.00
it: [30/37-1/250], rank: [1/1], Loss: 1.3148, Loss avg: 1.3621, lr: 0.100000, BT: 0.81, DT: 0.00
Train [1/250]	rank: [1/1], Loss: 1.3545, Acc: 0.6913, Bal Acc: 0.5055, BT: 1.18, DT: 0.02,  epoch time: 43.73
…
